data.pth (torch, 13887 bytes, 6 tensors)

l1.weight f4 [8, 203]
0	0x3da90500	0.08252907
1	0xbe276a28	-0.16349089
2	0x3f0bce27	0.5461144
3	0x3ec5b850	0.38617182
4	0x3f0eb954	0.5575154
5	0xbefdd1b9	-0.49574068
6	0x3f809f7b	1.004867
7	0x3ff81022	1.9379923
8	0xbf7970f8	-0.97438
9	0xbeec8da3	-0.4620181
10	0xbc980c57	-0.018560572
11	0xbc7ef9fc	-0.015562531
12	0xbe377dfd	-0.17919154
13	0x3f06be90	0.52634525
14	0x3f102949	0.56312996
15	0x3fefa7df	1.8723105
16	0x3fa12d2d	1.2591912
17	0x3e994939	0.29938677
18	0xbe31d859	-0.17367686
19	0x3eed839b	0.4638947
20	0x3f96d6d3	1.1784309
21	0xbf77e1b1	-0.9682875
22	0xbf7506ce	-0.9571351
23	0x3feb8af3	1.8401779
24	0x3d37757f	0.044789787
25	0xbd950195	-0.072756924
26	0x3f357e1e	0.70895565
27	0x3fed2b37	1.8528813
28	0x3e83dc37	0.25753948
29	0x3f8150ee	1.0102823
30	0xbf2e30ae	-0.6804303
31	0x3f837918	1.027133
32	0x3fc5a9a5	1.5442396
33	0x3ff2f4cb	1.8980955
34	0x3e35620a	0.1771318
35	0xbf1e424d	-0.61819917
36	0xbdcbeb17	-0.09956949
37	0xbf82eb81	-1.022812
38	0xbef09f1b	-0.46996388
39	0x3e15bebb	0.14623539
40	0x3f28aeb9	0.65891606
41	0xbf122b98	-0.5709777
42	0x3eb5cd6a	0.3550828
43	0x3f74a004	0.95556664
44	0x3fb5e115	1.4209315
45	0x3f90a419	1.1300079
46	0x3f6fa27f	0.93607324
47	0x3f71d18f	0.94460386
48	0x3dbdab2d	0.09261165
49	0xbd67b5cc	-0.05656986
50	0x3eda83bb	0.42678627
51	0xbf24b057	-0.64331573
52	0x3f0ddf25	0.55418617
53	0x3fb42574	1.407393
54	0x3e0cf955	0.13766988
55	0x3db2f5b2	0.08738269
56	0x3f117298	0.5681548
57	0x401db81d	2.4643624
58	0x4032d025	2.7939541
59	0x3f09d2fa	0.5383755
60	0xbd0df888	-0.034660846
61	0xbdaf1c3f	-0.085503094
62	0x3f9af6af	1.2106532
63	0xbe2032e8	-0.15644419
64	0xbed75ad0	-0.42061472
65	0x3e86367e	0.2621345
66	0x3f971884	1.1804357
67	0x3dfdb931	0.12388838
68	0x3e043030	0.12909007
69	0x3ff1e2b5	1.889731
70	0x3e3a9dea	0.18224302
71	0xbf782c8c	-0.96942973
72	0xbe868a5f	-0.26277444
73	0x3f2bbe53	0.67087287
74	0x3fbc2636	1.4699161
75	0xbfc9118c	-1.570848
76	0x3fbc8330	1.4727535
77	0x3f3346fd	0.70030195
78	0x3fbd5914	1.479281
79	0x400ee3fb	2.2326648
80	0x3e3ddfb8	0.18542373
81	0x3f3d333e	0.73906314
82	0x3edd8014	0.43261778
83	0xbe357941	-0.17722036
84	0x3f91c3ec	1.1387916
85	0xbf7628b8	-0.9615588
86	0x3fa98186	1.3242652
87	0x3e487b0c	0.19578189
88	0x3e3aa48a	0.18226829
89	0x3f01ec03	0.5075075
90	0xbfc41b68	-1.5320864
91	0x3f00e1f5	0.50344783
92	0x3e913821	0.28363135
93	0x3e6d9a5d	0.23203416
94	0x3e049ac2	0.1294966
95	0x3e9a2b15	0.30110994
96	0x3f737b53	0.9511005
97	0x3fd199d4	1.637507
98	0x3dd25154	0.10269418
99	0xbfbc616b	-1.471723
100	0x3fb983a7	1.4493302
101	0x3e48f06a	0.1962296
102	0x3f5657bc	0.8372762
103	0xbfa3a728	-1.2785387
104	0xbe7c37c8	-0.24630654
105	0x3fed728d	1.8550583
106	0xbe78771f	-0.24264191
107	0x3f8c1569	1.0944034
108	0x3f6eb013	0.9323742
109	0x3f568234	0.83792424
110	0x3dba02de	0.09082578
111	0x3e92eb5e	0.28695196
112	0x3ee02383	0.43777093
113	0xbe80a1a5	-0.25123325
114	0x3eae8e6e	0.3409304
115	0xbe810c05	-0.25204483
116	0xbfac508c	-1.3462081
117	0x3fa499a0	1.2859383
118	0x3d37720c	0.044786498
119	0x3fbafe72	1.46089
120	0x3eac90eb	0.33704314
121	0x3fa5eb51	1.2962438
122	0xbe2bc77a	-0.16775313
123	0xbf76f896	-0.9647306
124	0xbf76f046	-0.9646038
125	0x3dbe4057	0.092896156
126	0xbf34b5ca	-0.7058989
127	0xbf76fe49	-0.9648176
128	0x3e3c306d	0.18377848
129	0x3eb14552	0.346232
130	0x3e8bd99c	0.2731446
131	0x3f2b9671	0.6702643
132	0x3f31a37b	0.69390076
133	0x3f0584ee	0.5215596
134	0xbdc6e1da	-0.097110465
135	0x3f62538e	0.88408744
136	0x3e11e8c8	0.14248955
137	0x3f106881	0.5640946
138	0x3e9e458e	0.3091244
139	0x3f42572b	0.7591426
140	0x3ee45a70	0.44600248
141	0x3f976d95	1.1830317
142	0xbe842c1c	-0.25814903
143	0x3efef960	0.49799633
144	0x3f1a6bce	0.60320747
145	0x3e1144b9	0.14186372
146	0x3f712488	0.9419637
147	0x3f26e86c	0.651984
148	0x3e63a349	0.22230257
149	0x3f802303	1.0010685
150	0x3e294340	0.1652956
151	0x3ec6000a	0.38671905
152	0xbf608e12	-0.8771678
153	0xbd9fe7a2	-0.07807852
154	0xbe290fa8	-0.16509879
155	0x3dcea8ab	0.100907646
156	0x3f619332	0.8811523
157	0x3f7cbc4f	0.98724836
158	0x3fcde9ec	1.6087012
159	0x3eb467dc	0.35235488
160	0xbf79f09e	-0.9763278
161	0xbf7721be	-0.9653586
162	0xbf4600a5	-0.77344733
163	0xbf25e989	-0.6480947
164	0x3e703b4e	0.23460123
165	0x3e7925ce	0.24330828
166	0x3faa17b1	1.328848
167	0x3ed9b0a5	0.42517582
168	0x3e6b94a1	0.23005916
169	0x3d387e6a	0.045042433
170	0x3ef57aa7	0.4794514
171	0x3e9d1dbf	0.30686757
172	0x3e70ad84	0.23503691
173	0x3f6828e5	0.906874
174	0x3fa9081d	1.3205601
175	0x3ec5874a	0.3857978
176	0x3f6c6970	0.92348385
177	0xbd9621f9	-0.073306985
178	0xbec0e10b	-0.37671694
179	0x3ebdd703	0.37078103
180	0x3d7fb77a	0.062430836
181	0xc014c93d	-2.3247826
182	0x3e6b1530	0.22957301
183	0xbf7732fc	-0.9656217
184	0x3ef49056	0.4776637
185	0xbda4da31	-0.08049429
186	0x3db01827	0.08598357
187	0xbf773916	-0.9657148
188	0x3e02f402	0.12788394
189	0x3fa82ec2	1.3139269
190	0xbdaba35e	-0.08380769
191	0x3faed419	1.3658477
192	0x3e83afc3	0.25720033
193	0x3f68d53b	0.90950364
194	0xbe976fa1	-0.29577354
195	0x3f768758	0.9630027
196	0x3f20c72d	0.6280392
197	0xbe1b7e70	-0.15184951
198	0x3edfc53b	0.43705162
199	0xbf76d0c9	-0.9641233
200	0x3fbbe7bd	1.4680096
201	0xbea5b93c	-0.32367885
202	0xbf20bfb1	-0.627925
203	0xbf9a01e4	-1.2031827
204	0xbf8429b3	-1.0325226
205	0xbf1e2af1	-0.61784273
206	0x3e2657c2	0.16244414
207	0xbec78281	-0.38966754
208	0x3f2241a8	0.63381433
209	0x3e9c9637	0.30583355
210	0xbf376da2	-0.7165166
211	0xbfa74ebc	-1.3070903
212	0xbe965ec8	-0.29369187
213	0xbf82d880	-1.022232
214	0x3f37aae3	0.7174513
215	0x3ea3a911	0.31964925
216	0xbf1df682	-0.61704266
217	0xbf0f19e2	-0.5589887
218	0x3ec66b3a	0.38753682
219	0x3f4292e4	0.7600539
220	0xbed2a141	-0.41138652
221	0xbf2930e2	-0.66090214
222	0x3bd180c1	0.0063935225
223	0xbe43bbcb	-0.19114606
224	0x3f1d7993	0.6151363
225	0x3b35e9ab	0.0027757685
226	0xbf60798e	-0.8768548
227	0xbf8bc177	-1.0918416
228	0xbda724a7	-0.08161288
229	0x3f705137	0.93873924
230	0xbf60519e	-0.8762454
231	0xbf0482e0	-0.517622
232	0x3cde0cac	0.027105652
233	0xbef91b92	-0.48653847
234	0xbda67466	-0.0812767
235	0xbf074985	-0.52846557
236	0xbd132c52	-0.03593094
237	0x3fad3d98	1.3534422
238	0x3fb9ab37	1.4505376
239	0xbf0372f9	-0.5134731
240	0xbef04d57	-0.46934006
241	0x3f34de77	0.70651954
242	0xbe73bfc7	-0.23803626
243	0x3ef551f1	0.4791408
244	0x3e5317a7	0.20614491
245	0x3e8f6dce	0.28013462
246	0x3f212f2a	0.6296259
247	0x3e428594	0.18996269
248	0xbee108a8	-0.43951917
249	0x3f9d1153	1.2270912
250	0xbe99817c	-0.299816
251	0xbeab33db	-0.33438
252	0xbf85e03e	-1.0459058
253	0xbe9418d7	-0.289252
254	0x3eebc533	0.4604889
255	0x3f1dd331	0.6165038

l1.bias f4 [8]
0	0x3f757267	0.9587769
1	0x3f5fa219	0.87356716
2	0x3fb01efb	1.3759454
3	0x3f5a2e65	0.8522704
4	0x3ee41d14	0.44553435
5	0x3f8d03dc	1.1016803
6	0x3feb3878	1.8376608
7	0x3fc3de27	1.530217

l2.weight f4 [8, 8]
0	0xc02600f0	-2.5938072
1	0xbf433ebd	-0.76267606
2	0x3fda906e	1.7075326
3	0x3fa69569	1.3014346
4	0xbfa4af9f	-1.2866095
5	0x3ec03fce	0.3754868
6	0x400bff53	2.1874588
7	0x3e5855ba	0.21126452
8	0xbe87a9f8	-0.26496863
9	0x3d88dbc4	0.06682542
10	0x3e5bf0bc	0.21478552
11	0xbea3d823	-0.32000837
12	0xbe26cf93	-0.16290121
13	0xbe81066e	-0.25200218
14	0x3d405efb	0.04696558
15	0xbee01e3b	-0.43773064
16	0x40088ba5	2.1335232
17	0xc00fa448	-2.244402
18	0x4026ce37	2.6063364
19	0xbfbf894f	-1.4963778
20	0x3f6256ae	0.8841351
21	0x40820596	4.063182
22	0x3cfc82ba	0.030824054
23	0xbfab099c	-1.3362308
24	0xbdca8058	-0.09887761
25	0x3e922d8d	0.28550377
26	0xbce58ad0	-0.028020293
27	0xbe58c152	-0.21167496
28	0xbe005b70	-0.1253488
29	0xbe2143fd	-0.15748592
30	0x3d9cecb4	0.07662335
31	0xbe90d57b	-0.28287873
32	0x4037cca8	2.8718662
33	0x3d176e82	0.036970623
34	0xbfa67936	-1.3005741
35	0x3fee1c1a	1.8602326
36	0xc011f8bd	-2.2808068
37	0x3e1c1af5	0.15244658
38	0x400cfdca	2.20299
39	0x3fd0e904	1.6321111
40	0xbe6b2aab	-0.22965495
41	0xbe1b07f1	-0.15139748
42	0xbe93cef9	-0.28868845
43	0x3e060923	0.13089423
44	0xbe141e0e	-0.1446459
45	0x3e3f73ff	0.18696593
46	0xbe9455ca	-0.28971702
47	0x3deac483	0.11463263
48	0xbcc8caf7	-0.024510844
49	0x403fef8d	2.998996
50	0x3fe0a8af	1.7551478
51	0xc02dfec5	-2.718675
52	0xbf8956a0	-1.0729561
53	0x3d84f4eb	0.06492027
54	0x3d18441a	0.03717432
55	0x4064f936	3.5777106
56	0x3ffda7eb	1.981687
57	0xbff13593	-1.8844475
58	0x3f91699f	1.1360358
59	0xbe47d413	-0.19514494
60	0x4055a381	3.3381045
61	0xc00f9bd4	-2.243886
62	0x4006dc90	2.107212
63	0x3fbdc35b	1.4825243

l2.bias f4 [8]
0	0x3fa5c95a	1.2952073
1	0xbeb69e72	-0.3566776
2	0x3f8e6288	1.1123819
3	0xbe1d63fe	-0.15370175
4	0x3fbfe1d4	1.4990792
5	0xbe412435	-0.18861468
6	0x3f7ba132	0.9829284
7	0xbeb144c0	-0.34622765

l3.weight f4 [50, 8]
0	0xbe81b254	-0.25331366
1	0x3c609aac	0.013708752
2	0x3f1f18a8	0.62147
3	0x3e8b417f	0.27198407
4	0xbeddc1a8	-0.4331181
5	0xbead7035	-0.3387467
6	0xc065407e	-3.5820613
7	0xbf3ab184	-0.7292712
8	0xbefd46c7	-0.4946806
9	0xbe4f4cba	-0.20244113
10	0x3ebacba0	0.3648348
11	0x3e6b7bae	0.22996399
12	0xbfa8532b	-1.3150381
13	0xbe7bb2e7	-0.24579965
14	0xbf52f73b	-0.82408494
15	0x3b9d2b6a	0.004796435
16	0xbfb39500	-1.4029846
17	0x3e63075f	0.2217078
18	0x3e45f5f4	0.19332105
19	0xbeb13453	-0.34610233
20	0x3f4d1be9	0.8012071
21	0xbeaa3239	-0.33241442
22	0xc08930a9	-4.28719
23	0xbfd9f2e9	-1.7027255
24	0xbd8d5a24	-0.069019586
25	0xbe1da706	-0.15395746
26	0x3f71e5e2	0.944914
27	0x3e903e69	0.28172615
28	0xc0895676	-4.2918043
29	0xbe25b82f	-0.16183542
30	0xbf8792c7	-1.0591668
31	0xbf445f1d	-0.7670763
32	0xc00b1794	-2.173314
33	0x3e99ed8e	0.30064052
34	0xbf38cb55	-0.7218526
35	0x3c069780	0.008214831
36	0x3eefdc62	0.46847826
37	0xbe5a1868	-0.21298373
38	0x3f1a754e	0.6033524
39	0xbf80ac89	-1.0052654
40	0x3fa0b180	1.2554169
41	0x3df55b7b	0.11980339
42	0x3f860496	1.047015
43	0xbeaa7b0e	-0.33297008
44	0xbff36fb9	-1.901847
45	0xbe5172cd	-0.2045395
46	0xc0263222	-2.5968099
47	0xc0339594	-2.8060045
48	0xbff5d7df	-1.9206504
49	0x3e3fd064	0.18731838
50	0x3f82d3cf	1.0220889
51	0xbe8244ce	-0.2544312
52	0xbf57c09c	-0.84278274
53	0xbb964d14	-0.004586825
54	0xbfc08eab	-1.5043539
55	0xbf9efb6d	-1.2420479
56	0xbf86acb2	-1.0521452
57	0x3e9dce11	0.3082128
58	0xc045c90f	-3.0903966
59	0xbc96c170	-0.018402785
60	0x3ea9208f	0.33032653
61	0xbe22e56e	-0.15907833
62	0xbf291dca	-0.6606108
63	0x3f51eb90	0.82000065
64	0x3ea938a9	0.3305104
65	0xbe46ac37	-0.19401632
66	0xbf20e799	-0.6285339
67	0xbe99225f	-0.29909036
68	0xbfc69a65	-1.5515867
69	0x3a9e72c3	0.0012088645
70	0x3f33d7c3	0.702511
71	0xbf120774	-0.5704262
72	0x3e801071	0.25012544
73	0x3dd2c0e6	0.10290699
74	0x3e52945f	0.20564412
75	0x3e3e80ce	0.18603823
76	0xc07401d3	-3.8126113
77	0xbd80c434	-0.06287423
78	0x3f84d161	1.0376397
79	0xc08283f9	-4.07861
80	0x3f80adb2	1.0053008
81	0xbe8442a3	-0.2583209
82	0x3e82d1c0	0.25550652
83	0x3e4d1616	0.20027956
84	0xc026105a	-2.594748
85	0xbd8377d3	-0.06419339
86	0x3ecadf7a	0.39623624
87	0xbff1af59	-1.8881637
88	0x3f329c91	0.6977015
89	0xbebd33f8	-0.36953712
90	0xc08dc67d	-4.4304795
91	0xbe8416b1	-0.25798562
92	0xbf9029fb	-1.1262811
93	0x3e8271ec	0.2547754
94	0x3ebbd3e3	0.36685094
95	0x3f20197e	0.625389
96	0x3ee2df4d	0.4431099
97	0xbd34c5a5	-0.0441338
98	0xbf7125b2	-0.94198143
99	0xbd8c70f8	-0.068574846
100	0x3f98d91a	1.1941254
101	0xbe4c7aa2	-0.19968656
102	0xc05314ff	-3.2981565
103	0xc0915dfd	-4.542723
104	0xbea2f7c7	-0.31829664
105	0xbea31488	-0.31851602
106	0xc005c2bf	-2.0900114
107	0x3d5b7830	0.053581417
108	0x3e0025fb	0.12514488
109	0xbea7e68e	-0.32793087
110	0x3f33e5f4	0.70272756
111	0xbcaf621e	-0.02140909
112	0xbf6245bf	-0.88387674
113	0x3dc47f45	0.09594587
114	0x3f360c59	0.7111259
115	0x3e2697fe	0.16268918
116	0x3ebd29e8	0.36946034
117	0xbe3b66c9	-0.18300928
118	0xbfb1173b	-1.3835214
119	0xc0ab6f2a	-5.35732
120	0xc0616949	-3.522051
121	0xbe452baf	-0.19254945
122	0x3ecdd2bd	0.40199843
123	0xbe2aeea9	-0.16692604
124	0xc0162a01	-2.3463137
125	0x3e9538f4	0.29145014
126	0x3fa0cf7d	1.256332
127	0xc01ba6ea	-2.4320626
128	0x3f9321db	1.1494707
129	0x3e991fa7	0.2990696
130	0xbf91d731	-1.1393796
131	0x3e53bfb6	0.206786
132	0xbe646b7d	-0.22306629
133	0xbd4136d4	-0.04717143
134	0x3f388d47	0.7209057
135	0xc0091008	-2.1416035
136	0xc01aa39e	-2.4162364
137	0xbe72d077	-0.23712336
138	0xbf4b02eb	-0.7930133
139	0x3d2f5450	0.042805016
140	0x3e363206	0.1779252
141	0xbdd1ec45	-0.10250143
142	0xbef488c6	-0.477606
143	0x3f144ce9	0.57929856
144	0xc015f262	-2.3429189
145	0x3d92cddb	0.0716817
146	0x3f511443	0.8167154
147	0x3ea775e3	0.32707128
148	0xc03c5a17	-2.9429986
149	0xbdd37dac	-0.103267044
150	0xc033f5e9	-2.8118842
151	0x3ef4b01a	0.47790605
152	0xc00a08fc	-2.1567984
153	0xbe9d1f07	-0.30687734
154	0x3ef10ed7	0.47081634
155	0xbdb9c938	-0.090715826
156	0xbf26543b	-0.64972275
157	0x3d4484fa	0.04797838
158	0x3e75da21	0.24008991
159	0xbf5e3d16	-0.8681196
160	0x3f3a5812	0.72790635
161	0xbe9b705d	-0.30359164
162	0xc08d7948	-4.421055
163	0xbe522413	-0.20521574
164	0x3effffb7	0.49999782
165	0x3e533ee7	0.20629464
166	0xbe8b8afb	-0.2725447
167	0xbd4f97b3	-0.05068178
168	0x3ebe4890	0.37164736
169	0xbdf156b7	-0.11784118
170	0xbf238ba2	-0.6388494
171	0x3c77b3a0	0.0151185095
172	0x3ebcc2be	0.36867326
173	0xbe9155c5	-0.2838575
174	0xbf17a9fb	-0.59243745
175	0xbebc2ec1	-0.3675442
176	0x3dd9a4eb	0.10627159
177	0x3e00fe3d	0.12596984
178	0x3f073768	0.5281892
179	0x3eabb20d	0.3353428
180	0xbf243a6d	-0.6415165
181	0x3ea79282	0.32728964
182	0xbe728b7f	-0.23686026
183	0xc00e8c7f	-2.2273252
184	0xbf0e7ccc	-0.55659175
185	0xbe9259a9	-0.2858403
186	0xbf7f811e	-0.9980639
187	0x3d39f248	0.045397073
188	0xbea3539c	-0.31899726
189	0xbea8deb0	-0.32982397
190	0x3fc91cc9	1.571191
191	0xc086fa0e	-4.2180243
192	0xbff4395c	-1.9080005
193	0xbbc72eb6	-0.0060785664
194	0xbec2be7a	-0.38035947
195	0x3dd76c68	0.10518724
196	0x3ec1fff7	0.37890598
197	0xbeba9dcc	-0.36448514
198	0xc08693c4	-4.205538
199	0x3f14aa70	0.58072567
200	0xc0b0398b	-5.5070243
201	0x3e9c6b2a	0.3055051
202	0x3ea8a076	0.32934922
203	0x3d4ac3f8	0.049503297
204	0x3f2274a3	0.63459224
205	0xbe0cf6f7	-0.13766085
206	0xc02e6c20	-2.7253494
207	0xbf04ad89	-0.51827294
208	0xc0872100	-4.2227783
209	0x3dafbc8f	0.085808866
210	0xbfd72bac	-1.6810203
211	0xbca700f0	-0.02038619
212	0x3f6df726	0.92955244
213	0xbea986f6	-0.3311078
214	0xbfdb428a	-1.7129681
215	0x3ec582f5	0.38576475
216	0x3fc11d70	1.5087109
217	0x3d218ff7	0.039443936
218	0xc04bb77f	-3.1830747
219	0xbdf526de	-0.11970304
220	0x3f61c023	0.881838
221	0x3e08c4e4	0.13356358
222	0xbf1f8b2e	-0.62321746
223	0xc011d117	-2.2783868
224	0x3fc907c6	1.5705497
225	0xbe0e05de	-0.13869426
226	0xbe9f5b34	-0.3112427
227	0x3dc4fa30	0.09618032
228	0x3e2a347a	0.1662158
229	0xbe042ff0	-0.12908912
230	0xbf949143	-1.160683
231	0xc0c71a81	-6.2219853
232	0xbfa4ea2e	-1.2883966
233	0x3db527d5	0.08845488
234	0xc0559885	-3.337434
235	0xbe3eb868	-0.18625033
236	0x3fcced69	1.6009952
237	0xbe90b9fe	-0.282669
238	0xc01edce9	-2.4822333
239	0xbf295726	-0.661486
240	0xc08d6a76	-4.4192457
241	0xbe8695a6	-0.26286048
242	0xc08780b9	-4.234463
243	0xbdd22108	-0.102602065
244	0x3f25121c	0.6448076
245	0xbdb71bb0	-0.08940828
246	0x3e6b062c	0.22951573
247	0x3f220e39	0.6330295
248	0xbf6ffd39	-0.9374576
249	0xbe9cd6f9	-0.3063276
250	0xbeaf5d81	-0.34251025
251	0x3e768c82	0.24077037
252	0xbf18e19c	-0.5971925
253	0xbe4b2b5c	-0.19840759
254	0x3e16bb23	0.14719824
255	0x3e2959ac	0.16538113

l3.bias f4 [50]
0	0x3e338c2a	0.17533937
1	0xbf562079	-0.836433
2	0x3f42bee4	0.76072526
3	0x3e61557c	0.22005266
4	0xbd2b8793	-0.04187734
5	0x3deec63e	0.116589054
6	0x3dbeb7d4	0.09312406
7	0xbf09163e	-0.53549564
8	0xbf88d614	-1.0690331
9	0x3dbd10c2	0.09231712
10	0x3e98f78b	0.2987636
11	0x3f0522dc	0.52006316
12	0x3f4148ba	0.75501597
13	0xbf0f1a89	-0.55899864
14	0x3e9fdcd9	0.3122318
15	0x3ef7e51c	0.48416984
16	0x3cbb4eab	0.02286466
17	0xbf10ef38	-0.5661502
18	0x3eba658d	0.36405602
19	0xbe54b4f4	-0.20772153
20	0xbe86c6ee	-0.26323646
21	0xbd5d8fc9	-0.054092202
22	0x3dbf4dc3	0.09341004
23	0x3f10616e	0.56398666
24	0xbde0174c	-0.109419435
25	0xbe716145	-0.23572262
26	0x3ea146c1	0.31499293
27	0x3ec6e824	0.38848984
28	0x3f1b26ba	0.6060597
29	0x3f6958fe	0.91151416
30	0x3ee5a510	0.44852495
31	0xbfa711a5	-1.305226
32	0x3eb6b713	0.3568655
33	0xbe2d55fa	-0.16927329
34	0x3e931046	0.28723353
35	0xbf53771d	-0.8260363
36	0xbc3e4295	-0.011612554
37	0xbf484772	-0.78234017
38	0xbea0b7af	-0.3139014
39	0x3ee2c4a2	0.44290644
40	0x3ef5ef58	0.48034167
41	0xbd98cade	-0.07460569
42	0xbe9c224f	-0.30494925
43	0xbe8d662a	-0.27617007
44	0xbccdc1bb	-0.025116792
45	0x3eae9749	0.34099796
46	0x3ea008db	0.31256756
47	0xbf04f84d	-0.51941377
48	0x3f14405c	0.57910705
49	0x3e110718	0.14162862
